__aizoo/aizoo/deploy/serving/onnx/iris.onnx (onnx, 913 bytes, 4 tensors)

fc1.bias f4 [16]
00000000: b201 853e 500d e4bd 3cfb 893e d8f3 4a3e
00000010: c435 4a3e a87b cf3e 40aa b53d 240a 103e
00000020: 04fd 32be a40a b93e 308d 3a3e cc80 3a3e
00000030: d05c d33d c8c9 f33e 3024 ba3d 58e3 85be
0.25977856 -0.11135352 0.2694949 0.19819582 0.19747072 0.4052403 0.08870363 0.14066368
-0.1747933 0.3614093 0.18217921 0.18213195 0.10320437 0.47614884 0.090889335 -0.26150012

fc1.weight f4 [16, 4]
00000000: 5061 9fbd 8053 c2bb 5037 fd3d 90b7 8d3e
00000010: 000c b7bd eef2 963e 7020 ddbd 84dc a83e
00000020: 5ebb e9be 346e 7c3e 36e8 d8be d020 ebbd
00000030: 3a08 98be de08 87be 8e39 823e aa0f af3e
00000040: 3894 7a3e 3c3c db3e e09f 79be 50c9 6fbd
00000050: 4826 1a3e c0b4 8d3e d0a1 593d a8b4 9e3d
00000060: d831 dbbe 9038 af3d fc4f b3be d839 b2be
00000070: e400 5b3e d4ef 263e 70e4 a8be badd f9be
00000080: e077 9ebe 807a 973e 9020 bd3d 8007 f0bb
00000090: 78a5 fabe 362e adbe 4605 fb3e f06f 9a3e
000000a0: 38ff 50be fedb 813e 601f f03e 8acd bcbe
000000b0: 7e5f fcbe b085 be3e ec47 6fbe 1064 543d
000000c0: 1007 1abd 483e e43e 5013 03be cc96 f93e
000000d0: c43b f23e a0cb 863e e281 933e c4be 603e
000000e0: 8089 1b3e 6c62 dbbe a01d b3bd dee7 cbbe
000000f0: a6aa b9be f282 c0be a222 d03e 08b1 eb3d
-0.07782233 -0.005930364 0.12364066 0.2767911 -0.08937836 0.29482216 -0.107972026 0.3298074
-0.45650762 0.24651414 -0.42364663 -0.11480868 -0.29693776 -0.26373953 0.25434536 0.34191638
0.24470603 0.42819393 -0.24377394 -0.058541596 0.15053666 0.27676964 0.053132832 0.07749301
-0.42811465 0.0855571 -0.3502196 -0.34809756 0.21387058 0.16302425 -0.32986784 -0.48801976
-0.30950832 0.29585648 0.092347264 -0.007325113 -0.48954368 -0.3382432 0.4902746 0.30163527
-0.20409858 0.25363153 0.46898937 -0.36875564 -0.49291605 0.3721137 -0.2336728 0.05185324
-0.03760439 0.44578767 -0.12800336 0.4874786 0.47311223 0.2632723 0.2881003 0.21947771
0.15189171 -0.42848527 -0.08745885 -0.39825338 -0.36263007 -0.37599903 0.40651423 0.115083754

fc2.bias f4 [3]
00000000: dcbb cb3d 90e8 11be c020 9ebd
0.09947941 -0.14248872 -0.0772109

fc2.weight f4 [3, 16]
00000000: e80a 7cbe e800 273e 48e4 95bd bc47 ac3d
00000010: 20f5 b13d 1025 2e3e f833 55be 8ea3 663e
00000020: 584b eb3d 9868 363d 4e87 09be f290 4b3e
00000030: 60de 813c c03e febd 7c3d 21be 7c1a 63be
00000040: 107e b9bd 64a9 603e 40cc 923d 984a 483d
00000050: 22d7 26be d8d5 0fbd 8ecc 1bbe 7a94 67be
00000060: 4c50 aa3d 54da 5e3e e07b 9cbc 982c c0bd
00000070: b0eb 5d3d 9813 f33d 208b 6abe c4db 46be
00000080: 382d 7c3d c224 313e 4c60 223e 5ccf 3ebe
00000090: 7afa 213e 5000 06bd 1432 f7bd b481 d83d
000000a0: 9e80 3abe d033 1ebd 702d 173d 1ea6 2b3e
000000b0: 3cca b7bd b2e4 42be decf 263e c09e 3cbe
-0.24613535 0.1630894 -0.07318932 0.0841212 0.08689332 0.17006326 -0.20820606 0.22523329
0.1148898 0.044533342 -0.13430521 0.19879511 0.015853107 -0.12414312 -0.1574611 -0.22178072
-0.09057248 0.21939617 0.07167864 0.048899263 -0.16293004 -0.035116047 -0.1521475 -0.22615233
0.08316097 0.21762973 -0.019102037 -0.093835056 0.054179847 0.118689716 -0.22904634 -0.19419771
0.06156656 0.17299178 0.15857047 -0.18633789 0.15818205 -0.03271514 -0.120700985 0.10571614
-0.18213126 -0.03862363 0.036908567 0.16762587 -0.0897412 -0.19032553 0.16290233 -0.18419933
